{"class_name": "Sequential", "config": {"name": "sequential_1", "layers": [{"class_name": "Dense", "config": {"name": "dense_1", "trainable": true, "batch_input_shape": [null, 6571], "dtype": "float32", "units": 600, "activation": "relu", "use_bias": true, "kernel_initializer": {"class_name": "VarianceScaling", "config": {"scale": 1.0, "mode": "fan_avg", "distribution": "uniform", "seed": null}}, "bias_initializer": {"class_name": "Zeros", "config": {}}, "kernel_regularizer": null, "bias_regularizer": null, "activity_regularizer": null, "kernel_constraint": null, "bias_constraint": null}}, {"class_name": "Dense", "config": {"name": "dense_2", "trainable": true, "units": 300, "activation": "relu", "use_bias": true, "kernel_initializer": {"class_name": "VarianceScaling", "config": {"scale": 1.0, "mode": "fan_avg", "distribution": "uniform", "seed": null}}, "bias_initializer": {"class_name": "Zeros", "config": {}}, "kernel_regularizer": null, "bias_regularizer": null, "activity_regularizer": null, "kernel_constraint": null, "bias_constraint": null}}, {"class_name": "Dense", "config": {"name": "dense_3", "trainable": true, "units": 150, "activation": "relu", "use_bias": true, "kernel_initializer": {"class_name": "VarianceScaling", "config": {"scale": 1.0, "mode": "fan_avg", "distribution": "uniform", "seed": null}}, "bias_initializer": {"class_name": "Zeros", "config": {}}, "kernel_regularizer": null, "bias_regularizer": null, "activity_regularizer": null, "kernel_constraint": null, "bias_constraint": null}}, {"class_name": "Dense", "config": {"name": "dense_4", "trainable": true, "units": 29, "activation": "linear", "use_bias": true, "kernel_initializer": {"class_name": "VarianceScaling", "config": {"scale": 1.0, "mode": "fan_avg", "distribution": "uniform", "seed": null}}, "bias_initializer": {"class_name": "Zeros", "config": {}}, "kernel_regularizer": null, "bias_regularizer": null, "activity_regularizer": null, "kernel_constraint": null, "bias_constraint": null}}, {"class_name": "Lambda", "config": {"name": "lambda_1", "trainable": true, "function": ["4wEAAAAAAAAAAQAAAAYAAABTAAAAc0oAAAB0AGoBfABkAGQAhQJkAWYCGQBkBYMCfABkAGQAhQJk\nAmQAhQJmAhkAFwB0AGoCfABkAGQAhQJkAmQAhQJmAhkAZANkBI0CGABTACkGTukAAAAA6QEAAABU\nKQHaCGtlZXBkaW1z6f////8pA9oBS9oLZXhwYW5kX2RpbXPaBG1lYW4pAdoBaakAcgkAAAD6UC9o\nb21lL3RpYW5jb25nL0RSTF9wcm9qZWN0L2NsdXN0ZXJpbmcvY2x1c3RlcmluZ193aXRoX3N5bnRo\nZXRpY19kYXRhX3RyYWluaW5nLnB52gg8bGFtYmRhPhICAABzAAAAAA==\n", null, null], "function_type": "lambda", "output_shape": [28], "output_shape_type": "raw", "arguments": {}}}]}, "keras_version": "2.2.4", "backend": "tensorflow"}